best_kdd_model.pt (torch, 28686 bytes, 6 tensors)

net.0.weight f4 [64, 30]
00000000: 56d5 f43b 0432 77bc b8a2 76bd 60b0 bd3d
00000010: 3938 68bd 3021 813d 9b16 bebd f486 da3d
00000020: d0e9 82bc 1843 3c3d 16f6 0dbe 0a39 cfbd
00000030: 4098 eb3c 65ad b9bd b019 0cbc 00f7 88bc
00000040: b081 05bc 84e1 7abd 4e86 f6bc 4fcf e93d
00000050: 1467 8ebd e4e8 03be 9625 543c fcf3 05be
00000060: 3055 63bd edd8 bbbd 7111 943d 665e 0a3d
00000070: 31e3 14be 59eb 7e3d 2475 3ebf aa18 aebd
00000080: d3d5 5ebe 133c 4fbf 39b0 d03d 4cd7 ef3e
00000090: 75dd 913f be8b 9dbd a7a5 c3bd 990c 51be
000000a0: 2061 a93d 7f9a dd3e 9b24 a8be 17dc 7bbe
000000b0: 1932 86bf 4046 24be 982d e2be 6b83 a6be
000000c0: a1e3 a73e 9ded 11bd c871 013e 4644 0cbf
000000d0: a446 9d3e 393f 863e 8f4c c1bb 0994 3b3d
000000e0: 84be ff3d 535a 1abe 8f00 88be eb09 04be
000000f0: 6969 6f3f 3f24 9ebe b25a 853e c084 f8bc
00000100: 7f84 1cbf 7cce 09be ddd4 bcbe 1f3b cdbd
00000110: e244 c5bf 3416 16bf c91e 543d cafc 2a3d
00000120: 67b7 2bbe d9bf e5bd 9008 febd dc19 143e
00000130: 7162 6d3e dd41 29be 0e49 1bbe 56e6 88bf
00000140: 8334 e1bd 068a 7ebe c2e9 9cbe be30 343c
00000150: f8d5 073e 7a10 4e3e 3fd1 8ebe d232 fd3e
00000160: b155 7c3e bcfe 8ebf 5f6a 92bf f3b2 b23d
00000170: 11ce 3d3d d6f5 07be 1b9c 50bf fb4d 763d
00000180: 65bd 123e 18ae fa3d 352a 34bf 4c9f 97be
00000190: b981 3fbe b165 a4be a0d3 1f3d c007 d2bb
000001a0: 52bb 1ebe e817 13be 2d14 a4bd a122 c43d
000001b0: c89b 1d3e a45c 993f a07e 853e ef9f a43e
000001c0: 7572 97be eb12 c03c 2b4e b9be 8a8d 7e3d
000001d0: 207d 97bf 3a03 eb3e 43dd 00bf 59fa 2d3e
000001e0: fdd6 2cbe af96 72be fda5 8dbc c02f efbe
000001f0: 3ce5 403c 1108 1b3f a87e 9b3f ec73 ecbd
00000200: 1655 583e bed5 bebf 4261 713d bd4c 913e
00000210: 189d 8dbe 50ec 7cbd 9f11 f0be 6627 b7bd
00000220: 56bf 11bf 2815 e9be bf33 133f bedb a7bd
00000230: b7b0 003e 753d 363e 1315 283d bd30 65bd
00000240: d173 9c3c bc7c b6bc b3d0 653e cf8e 91bf
00000250: 455f 92bd 3f60 81bf 237f b1be a783 29bf
00000260: 0b53 34bf 00cc edbb 9259 87be 399c 95be
00000270: 13f2 6fbf e873 b8bc 99c8 81be d870 e83c
00000280: 3553 f2be 5a01 d93d 3cc2 73bd 0047 463c
00000290: 5c55 62be 7362 aebd 77fe 62be 1092 173d
000002a0: 2ca3 7dbe 79b7 713f 637e b4be 011f ebbe
000002b0: 59f4 333d 283e 353e 01ed bf3e 86d1 e4bf
000002c0: 1b95 b33e fe36 36bf 6538 093e 3d04 cd3e
000002d0: 949d 47be 36be 8a3d 3222 3d3e f006 823f
000002e0: dc8f 90be 05d9 3a3e 734e 3f3f 78bb 533d
000002f0: f2be 523f 5a1a 863e dca9 5c3d 058a 3f3f
00000300: 88e7 3cbe ac29 50be 8c18 f4be 2ed4 57be
00000310: 3bc1 56bf 113c 1dbf 06e0 a63e f0fc 2dbe
00000320: 8722 c8be 2cd0 ec3e 917c 85be d80e 8abe
00000330: ecd7 5ebc fd64 a73e a5bc dd3d 20e6 2cbe
00000340: aa92 2a3e 10e4 03c0 fa80 0f3e fff1 8a3d
00000350: a5f7 b2be 4a3e 24c0 d3df 43bf 1111 47be
00000360: 8c28 2dbf 1076 9b3c d916 37c0 2e5b 5fbf
00000370: 1304 b6bd ae4b 79c0 6325 183c d740 87bd
00000380: bc75 f0be 0073 92bd cd16 b03d 69b5 84bd
00000390: a785 63bf 6b09 b5bd cdb3 8dbe 36cd 6f3d
000003a0: ccc2 093e fe07 8a3d 9499 9d3c 5621 13be
000003b0: 720c a13d 696a 81bd 5e88 24be 6eb6 b4be
000003c0: 5b63 0bbf a0af 61bd 67b3 523d 63f4 59bf
000003d0: 4356 883e 60cb aa3e 25b4 f83e 9263 89bd
000003e0: 13c8 12bf 0a32 6abe 5300 843c dcad d33c
000003f0: 67df 0ebf 650f 53be 0d3c 2bbf 9c28 b7bd
0.0074717207 -0.015087608 -0.060213774 0.092621565 -0.056694243 0.06305158 -0.092816554 0.106702715
-0.015980631 0.045962423 -0.13863406 -0.10118301 0.028759122 -0.090662755 -0.008551046 -0.016719341
-0.008148596 -0.061250225 -0.030093338 0.11416494 -0.06953254 -0.1288181 0.012948414 -0.13081354
-0.055501163 -0.09172235 0.07229889 0.03378143 -0.14539792 0.062236164 -0.7439749 -0.08500798
-0.21761255 -0.8095104 0.10189862 0.46843946 1.1395708 -0.07692669 -0.0955308 -0.20414962
0.08270478 0.43281934 -0.32840428 -0.24595676 -1.0484039 -0.16042423 -0.4417541 -0.3252214
0.32790855 -0.035626996 0.1264106 -0.54791677 0.30717957 0.2622011 -0.005899019 0.045795474
0.1248751 -0.15073518 -0.26562926 -0.12894408 0.9352022 -0.3088703 0.26045758 -0.030336738
-0.61139673 -0.13457674 -0.36881152 -0.10021042 -1.5411646 -0.5862763 0.05178717 0.041744985
-0.16769181 -0.11218233 -0.12403977 0.1446299 0.23182084 -0.16529031 -0.15164587 -1.0695293
-0.10996344 -0.2485734 -0.30647093 0.010997949 0.13265216 0.20123473 -0.27894017 0.49452835
0.24642064 -1.1171489 -1.1438712 0.08725538 0.0463391 -0.13277373 -0.814882 0.06013296
0.14330061 0.12240237 -0.703769 -0.2961372 -0.18701829 -0.32108834 0.03902018 -0.0064096153
-0.15501145 -0.14364588 -0.08011661 0.095769174 0.15391457 1.1981397 0.2607317 0.3215327
-0.2957951 0.02344652 -0.3619245 0.0621467 -1.183506 0.459009 -0.5033762 0.16990031
-0.16878887 -0.23690294 -0.017291063 -0.46716118 0.011773404 0.60559183 1.2148027 -0.11545548
0.21126208 -1.4908979 0.058930643 0.2837886 -0.27658916 -0.061748803 -0.46888444 -0.089430615
-0.5693258 -0.45523953 0.57500833 -0.08196209 0.12567411 0.17796881 0.041035723 -0.055954684
0.019098194 -0.022276275 0.22442894 -1.1371707 -0.071470775 -1.0107497 -0.3466731 -0.6621651
-0.70439214 -0.0072569847 -0.26435524 -0.2922075 -0.9372875 -0.022516206 -0.25348356 0.02837412
-0.47329107 0.10595961 -0.05951141 0.012101889 -0.22102875 -0.085148714 -0.22167383 0.03700453
-0.24769276 0.9442058 -0.35252675 -0.45922092 0.0439342 0.17699492 0.37485507 -1.7876441
0.35074696 -0.7117766 0.13400419 0.40042296 -0.19493705 0.06774561 0.18470076 1.0158367
-0.28234756 0.18246849 0.7472908 0.051692456 0.8232261 0.2619198 0.053872928 0.74819976
-0.18447697 -0.20328397 -0.47674978 -0.21077034 -0.83888596 -0.6141978 0.3259279 -0.16991019
-0.39088842 0.46252573 -0.260716 -0.2696445 -0.0136012845 0.32694235 0.10826997 -0.1688466
0.1665751 -2.0607948 0.14014044 0.06784438 -0.34954563 -2.5663018 -0.76513404 -0.19440104
-0.67639995 0.018977195 -2.8607695 -0.87248504 -0.08887496 -3.8952441 0.009286257 -0.06604164
-0.46964824 -0.07150841 0.08598099 -0.06479914 -0.8887581 -0.08839687 -0.2767624 0.058545314
0.13453215 0.06739806 0.01923827 -0.14368185 0.07863702 -0.06319124 -0.16067645 -0.35295433
-0.5444848 -0.05509913 0.051440623 -0.8513853 0.26628312 0.33358288 0.4857494 -0.06708445
-0.5733654 -0.22870651 0.016113436 0.025839739 -0.55809635 -0.20611341 -0.66888505 -0.089432925

net.0.bias f4 [64]
00000000: 177f 45be 8dce c5bd 123c 103e 3500 35bd
00000010: 7fc0 1b3e af3d 20be 5e6a 05be 5f9e 773d
00000020: 3942 86bd ac65 ecbc 65d4 36bd ccdb b0be
00000030: b96b 3fbe bccb 3fbd bd93 2bbe 1a77 e73d
00000040: 9460 02be ca84 24be ba1f b3bd b3d4 9a3d
00000050: 701b 8d3d cb62 30be 0531 34be c134 f0bc
00000060: cc23 9dbc be04 c6bd 7192 c2bd fbd1 b5bc
00000070: 1f6a 883e 7306 8cbe 8ee5 5c3e 8de5 0abe
00000080: a065 b4bd d226 eabb c50d 99be 74ed 92bd
00000090: adec 823d 30a4 443e 4672 40bd 825d f2bd
000000a0: b718 aabd 082c 06be b275 243e af79 083d
000000b0: 22f6 5abe 7a1f eebd a69d d93c 3df8 39be
000000c0: 4b13 a8bd 9d13 ccbb 1e50 063e 0b3f 1c3e
000000d0: f3ea f3bd 7ff4 113e a819 aabe c508 933d
000000e0: 602a acbe 849f 80bd 3ff6 033d 0652 b2bb
000000f0: f155 193e 71ac 4d3d 4a69 74bd 19e8 aebd
-0.19286762 -0.09658537 0.14085415 -0.04418965 0.1521015 -0.1564853 -0.13028857 0.06045377
-0.065556 -0.028857075 -0.04463615 -0.34542692 -0.18693437 -0.046825156 -0.16755576 0.11302014
-0.12732154 -0.1606628 -0.08746286 0.075601004 0.06889999 -0.17225187 -0.17596824 -0.02932203
-0.019182108 -0.09668873 -0.09500588 -0.022194853 0.26643464 -0.2734867 0.21571943 -0.13564129
-0.08808446 -0.007145741 -0.29893318 -0.07174197 0.063927986 0.19203258 -0.04698398 -0.118342414
-0.08305495 -0.13102734 0.16060522 0.03331917 -0.21382955 -0.116270974 0.02656443 -0.18161102
-0.08206805 -0.006227924 0.131165 0.15258424 -0.119100474 0.14253424 -0.332227 0.07179407
-0.3362608 -0.06280425 0.03221726 -0.005441907 0.1497419 0.05021328 -0.059670724 -0.08540363

net.3.weight f4 [64, 64]
00000000: b270 a7bd a349 82bd 423c 79be 60c0 423c
00000010: 199e f4bd ae96 63bd e311 303e 8216 0abf
00000020: 22a6 0c3c 9caa e13e a6d3 ddbd 7630 62be
00000030: 9123 093f a9ab 8f3c 5d15 2ebd 21d8 5dbe
00000040: 2e01 17bf b40a ff3e bd93 bf3d 0e8d babf
00000050: c4ea 25bd e931 9dbe 4f70 67bf c8f5 d8be
00000060: fd5d 3cbf 899a 563c 81f0 4d3d 77d8 4d3c
00000070: 7095 6d3d 8d8b d7bd 2c62 923e 253e 903e
00000080: 4e49 4cbf ec4a a8be 52b5 a1ba b1a9 933e
00000090: 28b8 16be 6b42 7dbf 34eb c23e 15da 6abf
000000a0: 0e96 b63d ac62 b2bf b8a0 3bbe a928 f63c
000000b0: 0227 283e c5d5 9ebc 49e8 8abe 22f0 1bbf
000000c0: 7ef0 f2be 22fe d43d 8566 d23d 5a29 0f3b
000000d0: 6243 bcbe 766d 01bc d0a6 2b3e c949 74bf
000000e0: 3260 fa3d 919d 6a3d ce1b 88bf a8e2 a13e
000000f0: abdb 7dbe 3796 0f3f 60d7 e13d cb49 02bd
00000100: c1d8 0a3d 8e7f cebc 5641 2b3e eabb 0fbf
00000110: eeac 203d 06a3 25bf bae0 33bf ec74 783c
00000120: bd5a 3bbd 7454 c4be c40e 493d 96ee d6be
00000130: b6d2 0cbf 0b3d d8be d23c 8c3e 7d13 463e
00000140: d33a 843d f67c 1dbf c518 3dbf 216a 753e
00000150: 64d6 29bf 13b1 afbe eebc 5c3f 7011 483e
00000160: eb7b 4f3e 3eaa a9be 7d61 63bf f29a efbe
00000170: 9760 e13d 1c0d 86bd 41b4 1cbf e553 e7be
00000180: 96f1 653e 487c 443e 29bc 31bf fa5e f1bd
00000190: 79d4 873d 71eb 353e 43cf 67bf a0b3 65bb
000001a0: c10e cdbe d7f4 afbc 3c8a f13e dea0 f5be
000001b0: af22 10bd 4acb 933e 097b 593e 37f8 ec3c
000001c0: e248 923e 2fb6 a23d a3cf 8e3c 6cb9 0fbf
000001d0: df75 0f3e 804c b2bd 254b 93be c23a 863d
000001e0: a2bb 7cbe 0a8d 7dbf 06c5 323d 5ab6 32bf
000001f0: 32c0 0ebd e9ce 0ebf c6d1 11bf cf2b 8cbe
00000200: 8ca6 c33d 48b1 843e d1de 16be 170e 823e
00000210: 09ec a33e 29c3 113d 4a7e 9e3d b531 24bf
00000220: 7aac a93c 0068 0a3f c10f 513e 3b6b 46bf
00000230: 489e 5a3e eae1 a3bc 30bb 83be 1cd7 3a3e
00000240: bdd5 45bf beb6 843e 6820 f5bc 9376 97bf
00000250: 7f16 723e f831 1a3e 5d04 55bf c0e4 25be
00000260: d403 5abf cff3 f43d 2c5c 58be 548c 993e
00000270: 2de7 303d ad78 74bf 1c96 983e 3088 d73e
00000280: 0172 3abf 1b7d ce3b d202 173e 8cdb 993e
00000290: 565c 303e 9d54 6ebf d428 a13e 6f6c abbe
000002a0: 0362 e63d 635e 8abf 707d 183b 73a1 963e
000002b0: f68e 2ebf fb16 47bf 9a1a 0cbf 3330 77bf
000002c0: eb69 1dbf edce 6a3e a93a cb3e 371f 6e3e
000002d0: 1434 cebe 34a3 213e 7c8a 243e 9133 8cbf
000002e0: 966f 1d3d 1a90 893d 9a52 e8be d235 993e
000002f0: 43ea 333d 49d5 de3e 3783 cfbc 0623 eb3e
00000300: 48fb 17bd bc02 893e 500a c33e 9b44 c6be
00000310: 5fd6 bc3e d35d 16bf 2152 9cbe 3652 0cba
00000320: d0a5 de3e 076a 60be 2cc0 ab3d ec88 b2be
00000330: 5390 28bf 4026 f6bd bfc1 043e 85b0 9b3e
00000340: f99b cf3d 0305 653c 41ed 44bf c62a 103e
00000350: 7df0 b8be d660 c6bd 6dfc 993f a73a ad3d
00000360: ea1d 1fbc 60d1 943f 7d40 17bf 07a5 42bb
00000370: 25f4 a43e 7caa 9dbd 1550 14bf eb04 b4be
00000380: fd71 2d3e 3921 d93d 8bdc abbe f6e6 0abb
00000390: 0af3 133f b875 81bd f7f0 aaba e34e 18be
000003a0: 6f24 ebbd 9b72 92be 29fb f33e 0a6f a2bc
000003b0: a4fc 93bd 476b 0abe 5d7c c63c 98dc 09be
000003c0: 6405 2c3f 7bc9 be3e ea39 0d3f 2031 20bf
000003d0: 3c05 bd3d 89f5 773e abdc 9dbe 1c20 013e
000003e0: de7c f6be 871a 1bbf 7170 8a3e 341e 3fbf
000003f0: 2425 aa3e f1a5 bcbe 340d 83bd 5e59 82be
-0.08175792 -0.06361701 -0.24339393 0.011886686 -0.11944217 -0.05556362 0.17194323 -0.53940594
0.008584531 0.44075477 -0.10831384 -0.22088799 0.53569895 0.017537909 -0.042500842 -0.21664478
-0.58986175 0.49812853 0.09354351 -1.4574296 -0.040507093 -0.3070214 -0.90405744 -0.42375016
-0.73580915 0.0130983675 0.05027819 0.012563816 0.058003843 -0.10524664 0.28590524 0.28172413
-0.79799354 -0.3286966 -0.0012337363 0.28840402 -0.14718688 -0.9892947 0.3807007 -0.91739017
0.089153394 -1.3936362 -0.18323028 0.030048685 0.1642113 -0.019389043 -0.27130345 -0.6091329
-0.47449106 0.104000345 0.1027346 0.0021844716 -0.3677016 -0.007899633 0.16762853 -0.9542509
0.12225379 0.057279173 -1.0633485 0.31618237 -0.24790828 0.56088585 0.11027408 -0.031808656
0.03389812 -0.025207307 0.16724142 -0.5614611 0.03922742 -0.6470188 -0.7026478 0.015164595
-0.04574083 -0.38345683 0.049086347 -0.41978902 -0.5500902 -0.42234072 0.27390152 0.19343372
0.06456532 -0.615188 -0.7386592 0.23966266 -0.6634276 -0.34314784 0.86225784 0.19537902
0.20262115 -0.33137697 -0.8882063 -0.467979 0.11004751 -0.06545469 -0.61212546 -0.45181194
0.22455439 0.19188035 -0.69427735 -0.117856935 0.06632323 0.17765595 -0.9055063 -0.0035049692
-0.4005032 -0.021479053 0.47175777 -0.47974294 -0.035189327 0.28866035 0.2123834 0.028926952
0.2857123 0.07944905 0.017432993 -0.56142306 0.14009808 -0.087059975 -0.28768268 0.06554176
-0.24680951 -0.99043334 0.043644927 -0.69809496 -0.03485126 -0.5578447 -0.56960714 -0.27377173
0.09553251 0.25916505 -0.14733435 0.25401375 0.32016018 0.03558651 0.077389315 -0.64138347
0.020712126 0.5406494 0.20416166 -0.7750737 0.21349442 -0.020005185 -0.2572875 0.1824612
-0.77279264 0.2592067 -0.029922679 -1.1833061 0.23641394 0.15058124 -0.8320978 -0.16200542
-0.8516209 0.11960565 -0.21128911 0.29989874 0.043189216 -0.95496637 0.29802024 0.4209609
-0.72830206 0.006301535 0.1474717 0.30050313 0.17222723 -0.9309786 0.31476462 -0.33481166
0.11249163 -1.0810055 0.0023268126 0.2942005 -0.6818689 -0.7776944 -0.5472809 -0.9655792
-0.61489743 0.22930498 0.39693192 0.23254095 -0.40274107 0.15784913 0.16068453 -1.0953237
0.038436495 0.06716938 -0.4537552 0.29923874 0.04392458 0.435221 -0.025331123 0.45925158
-0.037104875 0.267599 0.38093805 -0.38724217 0.36882302 -0.58736914 -0.3053141 -0.00053528266
0.4348588 -0.21915446 0.08386263 -0.34870088 -0.6584522 -0.12019014 0.12964533 0.3040811
0.10137171 0.013978246 -0.7692452 0.14078817 -0.36120978 -0.09686439 1.2030159 0.08458453
-0.009711722 1.1626396 -0.59082776 -0.0029700415 0.32217517 -0.07698533 -0.57934695 -0.35160002
0.16938014 0.1060204 -0.33566698 -0.0021194792 0.57792723 -0.06321281 -0.0013041784 -0.14873843
-0.114815585 -0.28603062 0.47652557 -0.019828338 -0.07225922 -0.13517486 0.024229223 -0.13463056
0.67195725 0.37263092 0.55166495 -0.6257496 0.09229514 0.24214758 -0.3083242 0.12609905
-0.4814214 -0.6058735 0.2703891 -0.7465546 0.3323146 -0.36845353 -0.06399003 -0.25458807

net.3.bias f4 [64]
00000000: 9bff a73e 7384 1a3d 13f4 4f3e a740 4d3e
00000010: 3cd0 7fbd b83c 383e f920 5c3e be7b 543e
00000020: 569c 123e a1ce f8bc a765 1cbd 90dd 493e
00000030: c52a 303e 6ac7 5c3e 80a0 443e 74b6 f33d
00000040: d53e 423e 6f02 373e b1b5 ad3d 3368 5d3e
00000050: 4fb1 863e 9d85 6dbd 9f18 ca3d 6e23 4b3d
00000060: 90f8 0e3e da7f a9bb db8f 73bc 5812 4abe
00000070: f029 13bd 0c5e 2a3e 2163 8c3e f2a2 293e
00000080: 1a98 4fbc ba58 553d b985 473e 14a3 20be
00000090: 41cc 993e 5988 673e 0036 4f3d c508 453e
000000a0: 9069 c93d 5d58 193e cbfd 213e e5e5 a1bb
000000b0: 28aa fa3d df64 9b3d 0b82 f73d 5a0b 6d3e
000000c0: b2ac a93d 0bff 4f3e 636e 403e 228c 463e
000000d0: da88 a73d f438 a5bc de2d 923d 7d91 973d
000000e0: 281e 2b3e 8aef 1d3e a827 cc3d c7ba 743c
000000f0: 13e6 963d a2ae 0b3e d271 a43d 952e a53e
0.328122 0.03772397 0.2030795 0.20044194 -0.062454447 0.17991912 0.21496953 0.20750329
0.1431745 -0.030371966 -0.03818288 0.19713426 0.17203815 0.21560445 0.19201851 0.119000345
0.18969281 0.17872022 0.084819205 0.2162178 0.2630715 -0.05798875 0.09867977 0.049594335
0.13962007 -0.005172712 -0.014865841 -0.1973356 -0.035928667 0.16637439 0.2741938 0.16566065
-0.012670541 0.05208657 0.19484605 -0.1568721 0.30038646 0.22610606 0.050588608 0.19241627
0.098345876 0.14975114 0.1581947 -0.0049407356 0.12239486 0.07587599 0.120853506 0.23148862
0.08284892 0.20312135 0.18792109 0.19389394 0.08180399 -0.020168759 0.07137655 0.074007966
0.16710722 0.15423408 0.09968501 0.014937109 0.07368102 0.13640836 0.08029522 0.32262102

net.6.weight f4 [5, 64]
00000000: 7af8 983e 9267 11bf d21a d43e a032 563e
00000010: efd3 003f 8765 db3e 36f6 a23e d592 a33e
00000020: 5bd9 5cbf dd50 9b3d 4b08 c43d 74d1 75bf
00000030: 4d73 513e 85da e9be 9eab 8bbf be17 b3be
00000040: 104a cd3e e713 d63e d35e 35be bb9b acbf
00000050: 6853 d7bf 1a87 423f dac6 8abf 2005 dfbe
00000060: 20bb 783e cf99 343e 2cc2 c63e 574a dbbe
00000070: cc89 c03d 071c 9fbe aa58 d23e ebb4 9c3e
00000080: 1042 f43d b776 3c3e e202 63bf 65bc d73e
00000090: fd59 bdbf ae82 adbf a5e4 7c3e 3ff2 2abe
000000a0: 2dd5 0d3e ba24 313e da4c 0e3f 3b43 e83e
000000b0: 307d aebe 363d 223f 30bc 0d3e 3ce1 d73e
000000c0: b36c 64bc 7c99 193f 0267 123f 4c14 49bf
000000d0: 75c4 bdbe 3cd8 263e aff4 0bbf be2d 64bf
000000e0: 22e5 8ebf 23b5 c43d bacb 9ebe 0fb4 fc3e
000000f0: c89f b83e 76dd 4b3e 20f6 68bf de93 9d3e
00000100: 2af5 36bf ec91 0d3f c0c7 12bf 84de 7b3e
00000110: 3335 a3be 8f92 20bf 75ce e7be 01c4 d7be
00000120: ee67 33bf ef63 383e 1f0f 1d3e be41 9a3e
00000130: 5ccc 9a3e d833 ad3e 4ec7 763e 3539 3a3f
00000140: 9b75 32bf bc9e 07bf 3bf3 13bf 8541 0f3e
00000150: 84ec cb3d a000 c1be ba46 263e 26a2 033f
00000160: 2beb 8b3e 9896 af3d a1a0 c5be c12b 9b3e
00000170: 03ad 03bf 4ef8 5a3f 5806 3abf d337 23bf
00000180: fdbe 00bf 7d50 9bbe 6edd aa3e 7b9f 07bf
00000190: aa75 4cbf 1251 56be b3f6 533e 959a d53e
000001a0: 8e87 6c3d 01ed 8c3e 042e 14bf c83b 9fbe
000001b0: d46b 163f 5531 dbbe ea11 3f3e 8110 07bf
000001c0: 7ebe 72bf 0387 5cbf 59c1 32bf 5d74 063f
000001d0: 2e03 db3e b04c f23d 2ae3 9d3e f2b8 813e
000001e0: 2fd1 07bf 4327 8f3e ef55 633e e96c 99be
000001f0: a71a f9be aa46 913e 2464 a23e 3245 f0be
00000200: 9815 e7be b0d7 3fbe b9be 9bbe 6490 fcbe
00000210: 450e cfbe 3943 f9be c6c8 c1be 09fb 00bf
00000220: 5537 303f 1dce 5dbf cb57 793e ddfb 91bf
00000230: 808c 16bf e1c6 89bf fde1 893e c5e7 3dbf
00000240: 6bd8 f4be 0e86 03bf 15fa fe3e 4c6e 8f3e
00000250: b099 79bf 7869 35bf fd6b b73e 5f08 c6be
00000260: d573 44bf 57fb b7be bc26 d9be 5be2 0bbf
00000270: 210d ae3e eddf 4ebf b39d 83bf 57e8 3ebe
00000280: 58f4 fa3e 466a 8dbe d41c 86bf 3129 bb3e
00000290: 331d 7dbf 543c e2bf a19d 42bf 6504 92be
000002a0: 60d9 4a3e e0f6 2ebf d758 a3be cf88 31bf
000002b0: de54 53bf c7a9 36bf ee89 18bf 7e13 f6be
000002c0: c9b0 833e 9aba 0ebf d27d 22bf 5e15 30be
000002d0: 9240 c0be 6508 4b3e 1289 98be 3832 ae3e
000002e0: 3d7d 3c3f b9f8 2abf b495 98bf 2e27 5cbf
000002f0: ace5 7c3e ba15 c5be 2a4d b53e f8f6 c2be
00000300: 0015 a53e c749 8cbe 10a1 43bf cb68 fdbe
00000310: 92db 54bf 8964 cebe 8380 3ebf 2826 1abf
00000320: 9add 61bf 80f0 a83d af6d 6fbf 30f2 ce3e
00000330: a114 03bf 6bdd cb3e 4b86 2b3e ad53 46bf
00000340: 7434 09bf 7a9b bebe 9996 66bd 167b 8a3e
00000350: 9251 193f b011 e2be 9d0c c0be 4232 0abf
00000360: ebcc 0ebe 2483 2ebf 51bf babe 8d4e f5be
00000370: 76d8 8abe 8a09 30bf 4afa 0b3f 92bd 2dbf
00000380: 9a5f 5abe 768f ecbe cf2b e53e aaa2 05c0
00000390: 7e7f 2e3f f5ca 413f ccae 8ebe 3958 03bf
000003a0: a9eb d8bf a6ce b7bd 3a3f 00bf 09bb a0be
000003b0: bd85 c5be 547f 0ebf 2ae0 dfbe be2c 06bf
000003c0: 1d3e 963e d24b b9be ef66 133b fbd4 1bbf
000003d0: 1b21 46be dad5 c3bf 5f41 19bf 1691 14bf
000003e0: ccb3 1e3f ed06 d2be 7d73 893e e0ef 1bbf
000003f0: 245a b1bf 7122 08bf bea8 34be 8b1b 8cbe
0.29877073 -0.5679866 0.41426712 0.2091775 0.50323385 0.42850897 0.3182847 0.3194796
-0.8626916 0.07583783 0.09571894 -0.96022725 0.2045414 -0.4567453 -1.0911748 -0.3497905
0.40095568 0.4181206 -0.17711954 -1.3485025 -1.6822329 0.759874 -1.0841935 -0.43558598
0.24290133 0.17636798 0.38820016 -0.42830154 0.09401283 -0.3107607 0.4108327 0.3060678
0.11926663 0.18404661 -0.88676274 0.4213592 -1.4793087 -1.3555505 0.24696596 -0.16693972
0.13850851 0.17299166 0.55586016 0.45363793 -0.34079885 0.6337465 0.13841319 0.42164028
-0.013941932 0.59999824 0.5718843 -0.78546596 -0.37063947 0.16293424 -0.5467023 -0.891323
-1.1163676 0.096048616 -0.31014806 0.49356124 0.36059403 0.199087 -0.91000557 0.30776876
-0.7146784 0.55300784 -0.57336044 0.24596602 -0.31876525 -0.6272363 -0.45274702 -0.42141727
-0.7008046 0.18006872 0.153378 0.30128282 0.3023404 0.33828616 0.24099466 0.7274354
-0.697107 -0.52976584 -0.57793015 0.13989837 0.09957221 -0.3769579 0.16237918 0.51419294
0.27327856 0.08573645 -0.38599113 0.3030682 -0.5143587 0.8553513 -0.7266593 -0.63757056
-0.50291425 -0.30334845 0.33372062 -0.5297772 -0.7986704 -0.20929363 0.20699577 0.417195
0.057746463 0.2752457 -0.57882714 -0.31100297 0.5875828 -0.42811075 0.18659177 -0.5275956
-0.9482192 -0.8614351 -0.69826275 0.52521306 0.42775863 0.11831033 0.30837375 0.25336415
-0.53053564 0.27959642 0.2220075 -0.29965904 -0.48653147 0.28374225 0.31717026 -0.46927792
-0.45133662 -0.18734622 -0.30418947 -0.4932891 -0.40440574 -0.486841 -0.3784849 -0.5038305
0.6883443 -0.8664263 0.24349897 -1.1404988 -0.58808136 -1.0763818 0.26930228 -0.7418178
-0.47821364 -0.51376426 0.49800172 0.28013837 -0.97500134 -0.7086406 0.35824576 -0.38678262
-0.76739246 -0.35933945 -0.42412364 -0.54642266 0.33994392 -0.80810434 -1.0282501 -0.18643318
0.49014544 -0.27620143 -1.0477548 0.36554864 -0.9887268 -1.7674661 -0.7602177 -0.28518978
0.19809484 -0.6834545 -0.31903717 -0.6934938 -0.8255137 -0.7135281 -0.59585464 -0.48061746
0.25720814 -0.5575348 -0.63473237 -0.17195651 -0.37549263 0.19827421 -0.29792076 0.3402269
0.736286 -0.6678577 -1.1920686 -0.85997283 0.24696988 -0.3849314 0.35410434 -0.38079047
0.32242584 -0.27400038 -0.76417637 -0.49494013 -0.8314754 -0.40311077 -0.74414843 -0.6021447
-0.8822876 0.08248997 -0.9352674 0.4041915 -0.5120335 0.39817366 0.16750447 -0.7747143
-0.5359566 -0.37227994 -0.056295965 0.27047032 0.5989009 -0.4415412 -0.37509623 -0.5398294
-0.13945358 -0.68168855 -0.36474088 -0.47911492 -0.27118272 -0.68764555 0.54678786 -0.67867386
-0.21325532 -0.46203202 0.44759986 -2.0880532 0.6816329 0.7570031 -0.27867734 -0.5130649
-1.6946918 -0.08974962 -0.50096476 -0.31392696 -0.38578597 -0.5566304 -0.4372571 -0.5241202
0.29344264 -0.3619066 0.0022491773 -0.6087186 -0.19348566 -1.5299637 -0.59865373 -0.58033884
0.619931 -0.4102091 0.26845923 -0.60912895 -1.3855634 -0.53177553 -0.17642495 -0.27364764

net.6.bias f4 [5]
00000000: 7a35 f5be 0e8a 003f 8d76 96be 528b 983e
00000010: 17a5 14be
-0.47892362 0.50210655 -0.29387322 0.29793793 -0.14516102
